classification/best_model_epoch_upcount.pth (torch, 17119 bytes, 5 tensors)

conv1.weight f4 [8, 3, 3, 3]
0	0x3e0f6b53	0.14005785
1	0xbda84320	-0.08215928
2	0xbd084c3a	-0.03327582
3	0x3c7b02ab	0.01532046
4	0x3e2deedb	0.16985647
5	0xbd2ccadb	-0.042185646
6	0xbdaf2b6c	-0.08553204
7	0x3d3b5519	0.045735452
8	0xbdfdd98c	-0.123950094
9	0x3daa562d	0.08317218
10	0xbe630663	-0.22170405
11	0xbe032278	-0.12806118
12	0xbc81287c	-0.015766375
13	0xbea0baff	-0.31392667
14	0xbead2ec3	-0.3382474
15	0xbd18e40b	-0.037326854
16	0xbe56ded3	-0.20983438
17	0xbe817405	-0.25283828
18	0x3eaf9213	0.34291133
19	0x3e9a6a3a	0.3015917
20	0x3ddc4c1c	0.10756704
21	0x3ebbc563	0.36674032
22	0x3d6c2084	0.057648197
23	0x3e2a5404	0.16633612
24	0x3e20165b	0.15633528
25	0x3e24669a	0.16054764
26	0xbe30d628	-0.17269194
27	0x3d085225	0.033281464
28	0x3df131cd	0.11777077
29	0x3e7b89c5	0.24564274
30	0xbce78981	-0.02826381
31	0x3ddafe40	0.106930256
32	0x3e630a2f	0.22171853
33	0xbe8d6834	-0.27618563
34	0xbe0fc08f	-0.14038299
35	0x3cec7ad9	0.028867172
36	0x3dce79be	0.10081814
37	0x3e9467ca	0.28985435
38	0x3e088089	0.13330282
39	0xbe36e1ae	-0.17859527
40	0xbd9128b6	-0.07087843
41	0x3ca81f84	0.02052284
42	0xbec65888	-0.3873942
43	0xbead5fe6	-0.33862227
44	0xbe3b7d51	-0.18309523
45	0x3e927ae2	0.28609377
46	0xbd352f43	-0.044234525
47	0x3e608530	0.21925807
48	0xbc72ad08	-0.014811762
49	0x3d06b45b	0.032886844
50	0x3e43fa96	0.1913856
51	0xbd04f95a	-0.032464363
52	0xbe4f0d26	-0.2021986
53	0xbde6e228	-0.11273605
54	0x3eb975b1	0.36222604
55	0x3ed007c2	0.4063092
56	0x3e6b867f	0.23000525
57	0x3e9cb918	0.30609965
58	0x3cb42d08	0.021994129
59	0x3e1c9d05	0.15294273
60	0x3e8ef316	0.27919835
61	0x3e932c4d	0.28744736
62	0x3e80fc2c	0.25192392
63	0x3ec21025	0.37902942
64	0x3e3168ba	0.17325106
65	0x3e478b41	0.19486715
66	0x3e1c57e6	0.15267906
67	0xbd04c130	-0.0324108
68	0x3e9acf73	0.30236396
69	0xbba9c575	-0.0051810094
70	0x3d2fb422	0.042896397
71	0x3e2bf0fe	0.1679115
72	0x3d36e494	0.044651583
73	0xbe669e0b	-0.22521226
74	0x3d2a0e03	0.04151727
75	0xbe0ff2f0	-0.14057517
76	0xba77ecda	-0.0009457596
77	0xbde4ff22	-0.11181475
78	0xbe2495d6	-0.16072783
79	0xbe87fe1c	-0.26561058
80	0xbebbf49e	-0.36710066
81	0x3df6a1ba	0.12042566
82	0x3e489727	0.1958891
83	0xbe39a3c2	-0.18128875
84	0x3db00f3f	0.08596658
85	0x3d873d7a	0.066035226
86	0xbeab239d	-0.33425608
87	0x3d2fc9e1	0.042917136
88	0xbe16fbb8	-0.1474446
89	0xbd7af298	-0.06126651
90	0x3ebd2efb	0.36949906
91	0x3e798651	0.24367644
92	0xbe09f46a	-0.13472143
93	0x3ecd4f44	0.40099537
94	0x3e2f20bc	0.17102331
95	0x3d845424	0.06461361
96	0x3cd1827e	0.025574919
97	0x3da3db4e	0.080008134
98	0xbe09f004	-0.13470465
99	0x3e20c53a	0.15700236
100	0xbdcb78fa	-0.09935184
101	0xbe917892	-0.284123
102	0x3e4fe766	0.20303115
103	0xbdf91224	-0.12161663
104	0xbe5a2993	-0.21304922
105	0x3b9f1025	0.0048542195
106	0xbd880033	-0.06640663
107	0xbea12c9e	-0.31479353
108	0xbdca5b13	-0.09880652
109	0x3bfbec40	0.0076880753
110	0xbe4bccec	-0.1990239
111	0xbd8044b5	-0.06263105
112	0xbd6b46ee	-0.05744069
113	0x3dcfd943	0.10148861
114	0xbe19a329	-0.15003647
115	0xbc29af66	-0.01035676
116	0xbd5198a4	-0.05117096
117	0x3e0c3cea	0.13695112
118	0x3cffe17d	0.03123545
119	0x3e2661dd	0.1624827
120	0x3c88267c	0.016619913
121	0x3e690445	0.22755535
122	0x3e2c45cb	0.16823499
123	0xbda38fdc	-0.079864234
124	0x3e8c0532	0.27347714
125	0x3e7c9329	0.24665512
126	0xbe4ad6fe	-0.19808576
127	0x3ca96d1f	0.020681916
128	0xbddf791b	-0.10911771
129	0x3de19fe5	0.110168256
130	0x3e240454	0.16017276
131	0x3c98a8d4	0.018635191
132	0xbd7f1561	-0.062276248
133	0xbdd2b589	-0.10288531
134	0x3ca10ed1	0.019660385
135	0x3e1b4e92	0.15166691
136	0x3e75fbb6	0.24021801
137	0xbcd01536	-0.02540074
138	0x3df4199a	0.119189456
139	0xbdf94390	-0.1217109
140	0xbdbd0ddf	-0.09231161
141	0x3dc94782	0.09828092
142	0x3e2f1cac	0.17100781
143	0x3dbd6aa7	0.09248858
144	0x3e188955	0.14896138
145	0x3ca330f5	0.019920805
146	0x3d6f5057	0.058426227
147	0xbc87c54c	-0.01657357
148	0x3d2d6435	0.042331893
149	0xbe408619	-0.18801154
150	0x3decef55	0.115690865
151	0xbde5afbc	-0.11215159
152	0xbe49fe3c	-0.19725889
153	0xbe06e371	-0.131727
154	0x3da8ff9d	0.08251879
155	0x3e6ae272	0.22937945
156	0x3e3789b3	0.17923622
157	0xbd75065a	-0.05982051
158	0x3d35da59	0.044397686
159	0xbe258032	-0.16162184
160	0xbdda160b	-0.106487356
161	0x3dca2b40	0.098715305
162	0x3d264049	0.04058865
163	0x3da877c4	0.082259685
164	0x3a735b85	0.0009283352
165	0xbe4c764a	-0.19966999
166	0x3d335b19	0.04378805
167	0x3e65d9c4	0.22446352
168	0xbc9b66e7	-0.018969966
169	0xbc02a868	-0.0079747215
170	0x3e5bb284	0.21454817
171	0xbe457d13	-0.19285993
172	0xbe705ef2	-0.23473719
173	0xbc49203a	-0.01227575
174	0xbdd266ba	-0.102735
175	0xbd97905a	-0.0740058
176	0x3e261389	0.1621839
177	0x3d4908c5	0.04908063
178	0xbe2a75aa	-0.16646448
179	0x3d1ef7bf	0.038810488
180	0x3defa821	0.1170199
181	0x3d838d4a	0.06423433
182	0x3e4b189e	0.1983361
183	0xbdbdb370	-0.092627406
184	0xbdc7e414	-0.09760299
185	0x3d18dc97	0.037319746
186	0x3e0e8f7b	0.13921921
187	0x3e1918b1	0.14950825
188	0x3e7692ce	0.24079439
189	0xbc5c47b5	-0.013444831
190	0x3e054e92	0.13018253
191	0x3cf8c812	0.030368838
192	0x3d1197c1	0.035545114
193	0xbbedd846	-0.007258448
194	0xbe481182	-0.19537929
195	0xbe0cba76	-0.13743004
196	0xbe81b648	-0.25334382
197	0x3cac1d66	0.021010112
198	0x3e81d0e9	0.25354698
199	0x3e8c2347	0.27370664
200	0x3d8d2267	0.06891327
201	0xbe172b05	-0.14762504
202	0x3e1a2ef2	0.1505697
203	0x3e3e5831	0.1858833
204	0xbde95c47	-0.11394554
205	0x3c10fe1d	0.008849648
206	0xbe088760	-0.13332891
207	0x3d19e0f9	0.037568066
208	0x3db4e272	0.088322535
209	0x3e973424	0.29531968
210	0xbcffa4a3	-0.031206435
211	0x3de305b4	0.11085072
212	0x3d398c18	0.04529962
213	0xbe17756c	-0.14790887
214	0xbe673002	-0.22576907
215	0xbe84c687	-0.25932714

conv1.bias f4 [8]
0	0xbca2d61c	-0.019877486
1	0x3d07b2fe	0.033129685
2	0xbe34eee6	-0.17669258
3	0x3d22c7ae	0.03974121
4	0x3d1bc360	0.03802812
5	0xbebc8877	-0.36822864
6	0x3e17bce7	0.14818154
7	0x3d3a5613	0.045492243

conv2.weight f4 [16, 8, 3, 3]
0	0x3c85ee11	0.01634887
1	0x3d416c71	0.04722256
2	0x3e36c99e	0.17850348
3	0x3da1745c	0.07883522
4	0x3e1dd32e	0.1541259
5	0x3d0e3dd7	0.034726944
6	0x3e82f528	0.25577664
7	0x3e1f98d7	0.15585648
8	0x3b465f35	0.003026915
9	0xbcca0fab	-0.024665674
10	0xbc27be48	-0.010238238
11	0x3d014e13	0.031568598
12	0xbd82b30b	-0.06381806
13	0x3c6221ec	0.013802033
14	0x3e0624a2	0.13099912
15	0xbe95e844	-0.29278767
16	0x3da3e528	0.080026925
17	0xbcdfdfcf	-0.0273284
18	0xbbcbc3bf	-0.006218403
19	0x3e0db1bc	0.13837332
20	0xbdadd155	-0.084871925
21	0x3d4697f3	0.048484754
22	0x3d6d0eff	0.05787563
23	0xbdc135d9	-0.09434099
24	0x3cff1c80	0.03114152
25	0x3ce8a1f7	0.028397543
26	0xbdd78efa	-0.105253175
27	0xbd8841b5	-0.066531576
28	0x3ea444e4	0.3208381
29	0x3f1b2603	0.60604876
30	0xbca283f4	-0.01983831
31	0x3ee1de2a	0.4411481
32	0x3efb6c1e	0.49105924
33	0x3e6625fd	0.22475429
34	0x3e969ce9	0.29416588
35	0x3d1babb4	0.038005546
36	0xbb0eecb5	-0.002180857
37	0xbbd0d40a	-0.0063729333
38	0xbe200af7	-0.15629183
39	0x3c655715	0.013997813
40	0x3d29084a	0.04126767
41	0x3cc353ee	0.023843732
42	0xbd1e3882	-0.03862811
43	0xbe3db2b0	-0.18525195
44	0xbe7661d7	-0.2406076
45	0x3cc6578a	0.024211664
46	0x3cca9faf	0.024734346
47	0x3e225a7b	0.15854828
48	0x3e082f41	0.13299276
49	0x3e2feb04	0.17179495
50	0x3dd5e3bd	0.10443828
51	0xbc13aa8f	-0.009012832
52	0xbc96032a	-0.018312056
53	0xbc6ab705	-0.014325862
54	0xbc761a65	-0.015020941
55	0xbc2c088e	-0.0105000865
56	0xbe4dea45	-0.20108898
57	0x3d3c430f	0.04596239
58	0x3e02e4b5	0.12782557
59	0xbcd7c98e	-0.026341226
60	0x3d6bcd34	0.057568744
61	0xbca0eb8a	-0.019643564
62	0xbe444590	-0.19167161
63	0xbd1889f0	-0.037240922
64	0x3d05c71d	0.032660592
65	0x3cdcfc21	0.026975693
66	0xbe6a376d	-0.22872706
67	0xbc3cdeca	-0.011527726
68	0xbddcaad6	-0.10774772
69	0xbde903de	-0.11377691
70	0xbd1c2d25	-0.03812899
71	0xbd25807a	-0.040405728
72	0xbe47bb34	-0.19505006
73	0xbe33e743	-0.17568688
74	0xbd834df8	-0.06411356
75	0xbe85d36f	-0.26137874
76	0xbdaeec5c	-0.08541176
77	0xbd1ac407	-0.037784602
78	0xbd65455a	-0.055974342
79	0xbdc1c680	-0.09461689
80	0xbdef6362	-0.11688878
81	0x3dd8bd1d	0.105829455
82	0xbe05f89f	-0.13083123
83	0xbde57a9e	-0.11205028
84	0xbe8e7f5c	-0.27831542
85	0xbe4498c6	-0.19198903
86	0xbea2db3a	-0.31807882
87	0xbe72d55c	-0.23714203
88	0x3d48ce8d	0.049025107
89	0xbd1ad724	-0.03780283
90	0x3e14217b	0.14465897
91	0x3df11e95	0.11773411
92	0xbd2c3948	-0.042046815
93	0x3ca02031	0.0195466
94	0x3dfc462e	0.12318073
95	0xbd55747d	-0.052113045
96	0x3e0e34f0	0.13887382
97	0xbb3cd1ac	-0.0028811498
98	0x3d206c53	0.039165806
99	0x3c803e8e	0.015654828
100	0x3e4ccd08	0.20000088
101	0x3d833d51	0.064081796
102	0xbc9cdc67	-0.019148065
103	0x3e3127cb	0.17300336
104	0x3e2df7c0	0.1698904
105	0xbe0548bf	-0.13016032
106	0xbe144c19	-0.14482154
107	0x3d085dcb	0.033292573
108	0x3d470b4c	0.048594758
109	0x3d603313	0.05473621
110	0x3da304bd	0.07959888
111	0xbdc2e9fa	-0.09517284
112	0xbc332ba1	-0.010935695
113	0x3d42e07f	0.047577377
114	0x3c8009f4	0.015629746
115	0x3d7f25e6	0.062292002
116	0x3d376e99	0.04478321
117	0x3e787b37	0.24265753
118	0x3e35d386	0.17756471
119	0x3e234302	0.1594353
120	0x3e77277b	0.24136154
121	0x3e3e0bf8	0.18559253
122	0x3db34ce9	0.08754904
123	0x3e2c40d5	0.16821606
124	0x3d052089	0.03250173
125	0xbc5f18c8	-0.013616748
126	0x3d600002	0.054687507
127	0xbdc44ada	-0.09584589
128	0xbd196d56	-0.037457787
129	0x3d47fe8d	0.048826743
130	0x3d152161	0.036408786
131	0xbcf08a91	-0.029362949
132	0xbdae81e6	-0.0852087
133	0xbc99fe55	-0.018798033
134	0x3d6c2afa	0.057658173
135	0x3c7587a9	0.014985957
136	0x3cc002b2	0.023438785
137	0xbde3ea2e	-0.111286506
138	0xbe48e3ae	-0.19618103
139	0xbdbb0ad0	-0.09132922
140	0xbe40056a	-0.18752065
141	0xbe1b9929	-0.15195145
142	0xbddf6356	-0.10907619
143	0x3d1b2964	0.03788127
144	0x3e26691d	0.16251035
145	0x3c9e80f9	0.019348608
146	0x3e625c13	0.22105436
147	0x3d8a7083	0.06759741
148	0x3e170057	0.14746223
149	0x3e25a796	0.1617721
150	0x3e88dfa8	0.26733136
151	0xbced3390	-0.028955251
152	0xbe11a0f4	-0.14221555
153	0xbec59ffe	-0.38598627
154	0xbd015e01	-0.03158379
155	0xbdf54947	-0.11976867
156	0xbe90a1c0	-0.28248405
157	0xbe093eb4	-0.13402826
158	0xbc90ba7a	-0.017667044
159	0x3d64a22f	0.055818733
160	0x3e5b1218	0.21393621
161	0x3d73bbc7	0.05950525
162	0xbd95befb	-0.07311817
163	0x3df20b38	0.11818546
164	0x3c5fc51f	0.013657837
165	0x3e141b30	0.14463496
166	0xbd517c3a	-0.051143862
167	0xbd1d923d	-0.03846954
168	0xbc309ea9	-0.010780015
169	0xbdfe3bb1	-0.12413729
170	0xbd5baa38	-0.05362913
171	0xbeb9f7b5	-0.36321798
172	0xbe498a61	-0.19681694
173	0xbda97857	-0.08274906
174	0xbed77204	-0.42079175
175	0xbe0dff25	-0.13866861
176	0xbe224f66	-0.158506
177	0x3d23aa5e	0.039957397
178	0xbd3f190a	-0.04665474
179	0xbe393ee6	-0.180904
180	0x3aab001f	0.0013046301
181	0x3e2f41c3	0.1711493
182	0x3d788ac0	0.060679197
183	0x3e3c4369	0.1838509
184	0xbe0ab218	-0.135445
185	0xbd1d692b	-0.038430374
186	0x3d0315e8	0.032003313
187	0xbc8be8ba	-0.017078746
188	0x3d4244f8	0.047429055
189	0x3e82cf1d	0.2554864
190	0x3ea41f3b	0.32055077
191	0x3e143339	0.14472665
192	0x3e699990	0.22812486
193	0x3e2e4e7a	0.17022124
194	0x3c9ee370	0.01939556
195	0x3e9a3b68	0.30123448
196	0x3c82ebe5	0.015981624
197	0x3e09290a	0.13394561
198	0x3e6658b5	0.22494777
199	0x3d99ad21	0.07503725
200	0x3ddfe943	0.10933163
201	0x3e52ef9d	0.20599218
202	0x3cb1ae09	0.021689432
203	0x3d429bb2	0.047511764
204	0x3c10a9c0	0.008829534
205	0xbdeac45e	-0.11463235
206	0xbdda8f23	-0.106718324
207	0xbe0039f9	-0.12522115
208	0x3d91a536	0.071115896
209	0x3d7aa24f	0.061189946
210	0xbe179478	-0.1480273
211	0xbd32e8e3	-0.04367913
212	0x3e1657d2	0.14681938
213	0x3e99f3bd	0.3006877
214	0x3e90ac49	0.28256443
215	0x3dc220ff	0.0947895
216	0x3de3a0f6	0.11114685
217	0xbb852465	-0.0040631765
218	0xbcd8df35	-0.02647362
219	0x3e15536b	0.14582603
220	0xbe5f4048	-0.21801865
221	0xbef01c79	-0.46896723
222	0x3e4dcf4a	0.20098606
223	0xbecd7e1e	-0.40135282
224	0xbf0c01df	-0.54690355
225	0x3e00711f	0.12543152
226	0x3ebedd7d	0.37278357
227	0x3ee87982	0.45405203
228	0xbd051af2	-0.0324964
229	0x3e28ede5	0.16497
230	0x3ef676e3	0.48137578
231	0xbeeac433	-0.45852813
232	0xbe83d109	-0.2574542
233	0x3e55785a	0.20846692
234	0x3e2a27cf	0.16616748
235	0x3deff09a	0.11715813
236	0x3ddea647	0.10871559
237	0xba813aea	-0.0009859477
238	0xbe382d32	-0.1798599
239	0x3c9cce89	0.019141452
240	0x3d64f1e4	0.055894747
241	0xbe9e1807	-0.30877706
242	0x3d36f66f	0.04466861
243	0x3f036545	0.513264
244	0x3e14a3cc	0.14515609
245	0xbdcf5665	-0.101239
246	0x3ec3bc9b	0.38229832
247	0xbd860c3d	-0.06545303
248	0xbf067bce	-0.5253266
249	0x3ee0f97a	0.43940336
250	0xbe03f79c	-0.12887424
251	0xbeff4b7b	-0.49862275
252	0xbc351022	-0.01105121
253	0xbda35efe	-0.07977103
254	0x3c132edb	0.008983339
255	0xbe045ee3	-0.12926821

conv2.bias f4 [16]
0	0x3c7dd0a1	0.015491636
1	0xbda6b389	-0.08139712
2	0x3c574016	0.013137838
3	0xbe186064	-0.1488052
4	0x3e4bd332	0.19904783
5	0x3c6b97fa	0.014379496
6	0x3e887537	0.26651928
7	0x3e5ef487	0.21772967
8	0x3e4a0bb6	0.1973103
9	0x3deea32e	0.11652218
10	0x3d6e5cbe	0.058193915
11	0x3cd725e0	0.026263177
12	0xbd30880f	-0.043098506
13	0x3e1336cd	0.14376374
14	0xbd9cbbc6	-0.076530024
15	0x3cadb8c6	0.02120627

fc.weight f4 [1, 2304]
0	0xbe062a5a	-0.13102093
1	0xbe734096	-0.23755106
2	0xbec30442	-0.38089186
3	0xbed60c3f	-0.41806218
4	0xbe787d8e	-0.24266645
5	0xbea5c604	-0.32377636
6	0xbe765b4a	-0.24058262
7	0xbe4969eb	-0.19669311
8	0xbe69f95f	-0.22849034
9	0xbe8d32a8	-0.2757771
10	0xbe937fd5	-0.28808466
11	0xbdbea893	-0.09309497
12	0x3dad73b2	0.08469333
13	0xbd50b995	-0.050958235
14	0xbc44872a	-0.011995116
15	0xbd5ea2b6	-0.054354392
16	0xbb1dc77c	-0.00240752
17	0x3cf0783b	0.029354205
18	0xbc1d9dad	-0.009620112
19	0x3d8205d4	0.06348768
20	0xbc780f44	-0.015140358
21	0xbcd81c53	-0.026380694
22	0xbd1adeec	-0.03781025
23	0xbd82d42c	-0.06388125
24	0xbd5900c1	-0.052979235
25	0xbd594c4e	-0.053051285
26	0x3d6a6beb	0.057231825
27	0x3d9f177c	0.07768151
28	0xbcf421ad	-0.029801214
29	0x3c322bbe	0.010874687
30	0xbd94bd9a	-0.07262726
31	0xbc99bfc8	-0.018768206
32	0xbd9ce761	-0.076613195
33	0x3d653ece	0.0559681
34	0xbd53ff3e	-0.05175709
35	0xbd85c360	-0.065314054
36	0xbda5ea0b	-0.08101281
37	0x3d37b701	0.04485226
38	0x3caf9986	0.02143551
39	0xbc53272f	-0.01288776
40	0xbd83270f	-0.06403934
41	0xbdfc4386	-0.123175666
42	0xbe2a83c9	-0.16651835
43	0xbdd084a8	-0.10181552
44	0x3b9395ed	0.0045039565
45	0x3c38ccb8	0.0112792775
46	0x3b41a678	0.0029548686
47	0xbd61fb84	-0.055171505
48	0x3d939bbc	0.07207438
49	0x3d58555b	0.052815776
50	0x3dba0135	0.090822615
51	0x3e6b9704	0.23006827
52	0x3e717901	0.23581316
53	0x3d1fe206	0.039033912
54	0xbdd724e0	-0.1050508
55	0xbc571219	-0.013126873
56	0x3c002184	0.007820491
57	0x3dcdf952	0.1005732
58	0x3dba4040	0.09094286
59	0xbd801c29	-0.06255371
60	0x3e096405	0.1341706
61	0x3e2cc9ab	0.16873805
62	0x3e8095aa	0.25114185
63	0x3f0a0c42	0.53924954
64	0x3f332f92	0.6999446
65	0x3e596b92	0.21232441
66	0x3ea6974c	0.32537305
67	0x3ec85b39	0.39132097
68	0x3e740a1c	0.23831981
69	0x3cdbbce4	0.026823469
70	0x3e09c4a0	0.13453913
71	0xbd6a289e	-0.05716764
72	0x3e09a191	0.13440539
73	0x3dc51034	0.09622231
74	0x3e603b03	0.21897511
75	0x3f0a4453	0.54010504
76	0x3f21b9d1	0.6317416
77	0x3e136a1c	0.14395946
78	0x3ef75387	0.48305914
79	0x3f11bcdc	0.569288
80	0x3e9a0541	0.30082133
81	0x3de5f369	0.112280674
82	0x3e3d586b	0.1849076
83	0xbd240779	-0.04004619
84	0x3de36786	0.1110373
85	0x3d741940	0.059594393
86	0x3d923fec	0.071410984
87	0x3e33514e	0.17511484
88	0x3e935804	0.28778088
89	0xbe1b9fdc	-0.151977
90	0x3d3dd5a9	0.04634634
91	0x3e89b909	0.26898983
92	0x3e003a5c	0.12522262
93	0x3d9b1314	0.07571998
94	0x3d3a5c41	0.045498136
95	0xbbcbd009	-0.006219868
96	0x3db69eed	0.089170314
97	0x3d8a34a7	0.06748324
98	0x3d76ed69	0.060285006
99	0xbcec847f	-0.028871773
100	0x3d0a5ebf	0.033781763
101	0xbe52bbbd	-0.20579429
102	0xbced3401	-0.028955461
103	0xbbb5ac7d	-0.005544244
104	0x3c55503e	0.0130196195
105	0x3d16e9d7	0.0368441
106	0x3e0ba48b	0.13636987
107	0xbca410c1	-0.02002752
108	0xbd15e729	-0.036597405
109	0x3d0ad597	0.0338951
110	0x3dde4eb1	0.10854853
111	0x3d1708f7	0.036873784
112	0x3d1bf0cb	0.038071435
113	0x3d06749c	0.03282605
114	0xbd25f2ee	-0.04051488
115	0xbdd04a21	-0.10170389
116	0x3aa4bc51	0.001256833
117	0xbcc85cba	-0.024458278
118	0xbdbda118	-0.09259242
119	0xbc39c805	-0.011339192
120	0xbce54503	-0.027987009
121	0xbe090538	-0.13380897
122	0x3c425618	0.011861347
123	0xbcd7733c	-0.026300065
124	0x3dd75326	0.10513906
125	0x3ccb5d0d	0.024824644
126	0x3d95bf1e	0.07311843
127	0xbd97a637	-0.0740475
128	0xbaf5b9c5	-0.001874738
129	0xbd87e913	-0.06636252
130	0xbdf90e2a	-0.12160905
131	0xbcc14b25	-0.023595402
132	0xbe3bdb14	-0.1834529
133	0xbe096446	-0.13417158
134	0xbdd4e055	-0.103943504
135	0xbe048b53	-0.12943773
136	0xbde32617	-0.110912494
137	0xbded906d	-0.11599813
138	0xbd9cbeb1	-0.07653559
139	0xbe49b115	-0.19696458
140	0xbdb92300	-0.09039879
141	0xbe0576ce	-0.13033602
142	0xbdc334ed	-0.09531579
143	0xbd04b38f	-0.032397803
144	0xbe3163d1	-0.17323233
145	0xbd832cb4	-0.06405011
146	0xbd17b0c4	-0.03703381
147	0xbd1c50e5	-0.038163085
148	0xbd0c41cd	-0.03424244
149	0xbd718b7f	-0.058970924
150	0xbce41b85	-0.027845154
151	0xbd820940	-0.063494205
152	0xbdcdaccf	-0.10042726
153	0xbdf35894	-0.11882129
154	0xbde55854	-0.11198488
155	0xbdb92a17	-0.09041231
156	0xbdc9b2cd	-0.09848557
157	0x3cdce743	0.026965743
158	0x3d46ed9e	0.048566453
159	0x3cd005d6	0.025393408
160	0x3d94c961	0.072649725
161	0x3ded80b0	0.11596811
162	0x3dc6d7e7	0.09709149
163	0x3dbe1818	0.09281939
164	0x3bf1f429	0.0073838425
165	0xbd181759	-0.03713164
166	0xbcc342be	-0.023835536
167	0x3c988ec3	0.018622762
168	0xbde37f19	-0.11108226
169	0x3ccf071a	0.025271941
170	0x3d38b5da	0.045095302
171	0x3d619173	0.05507035
172	0x3d72c4fa	0.059269883
173	0x3e1cbf65	0.15307386
174	0x3dec2674	0.11530772
175	0x3dbdb503	0.09263041
176	0x3d26f94b	0.040765088
177	0x3bb8ac78	0.0056357943
178	0xbd3fbc1d	-0.04681026
179	0x3cb920b6	0.022598606
180	0xbdf36f88	-0.11886507
181	0xbc925ace	-0.017865565
182	0xbb8e8708	-0.004349593
183	0x3d0b8428	0.03406158
184	0x3daac030	0.08337438
185	0x3e2bc026	0.16772518
186	0x3e33f56f	0.17574094
187	0x3d6bd43b	0.057575446
188	0x3a9158f8	0.0011089137
189	0xbce5452b	-0.027987083
190	0xbd84c4bf	-0.06482839
191	0xbc540638	-0.012940936
192	0xbd993f8e	-0.07482825
193	0x3c9793a5	0.01850302
194	0x3c3561d3	0.011070686
195	0xbc703f39	-0.014663511
196	0x3d0f9b1c	0.035060033
197	0x3e42e742	0.1903353
198	0x3e71314c	0.23553962
199	0x3da27697	0.079327755
200	0xbcdb21b1	-0.026749464
201	0xbd1ca72e	-0.038245372
202	0xbcfe24d9	-0.03102343
203	0x3cf4b02f	0.029869167
204	0xbd413962	-0.047173865
205	0x3ce295f1	0.027659388
206	0x3cd557db	0.02604287
207	0xb9ba0860	-0.00035482924
208	0xba9d26cc	-0.0011989712
209	0x3db73a17	0.08946627
210	0x3e5074e6	0.20357093
211	0x3de9afd2	0.11410488
212	0xbd2f3771	-0.042777482
213	0xbd42f155	-0.047593433
214	0xbb8a4633	-0.004219794
215	0x3d62d603	0.05537988
216	0xbc11888d	-0.008882654
217	0x3d14546e	0.03621333
218	0x3d1f5178	0.038896054
219	0x3dad0bec	0.084495395
220	0x3d9102af	0.0708059
221	0x3cee899c	0.029118352
222	0x3d51cdaa	0.051221527
223	0x3dab5c8a	0.0836726
224	0xbb78acbb	-0.0037944752
225	0xbce5fc72	-0.028074477
226	0x3b69b1e2	0.0035659005
227	0x3d939ce4	0.07207659
228	0xbc184383	-0.00929344
229	0x3d397f2f	0.045287307
230	0x3ce138e3	0.027492946
231	0x3daada5c	0.0834243
232	0x3dd2055e	0.1025493
233	0xbd637d4e	-0.05553942
234	0xbe42e185	-0.19031341
235	0xbd887d45	-0.06664518
236	0xbd002756	-0.031287514
237	0xbd42fff3	-0.047607373
238	0xbca04819	-0.019565629
239	0x3d9cad17	0.07650202
240	0x3c365a59	0.011129939
241	0xbb3b6ac6	-0.0028597577
242	0x3cc9a998	0.024617001
243	0x3c8bcf0e	0.017066505
244	0x3d6daa28	0.0580236
245	0xbc72ed9d	-0.014827159
246	0xbdad7e1b	-0.08471318
247	0xbdb296e6	-0.08720188
248	0xbd3037dd	-0.043022025
249	0xbcd7335e	-0.026269611
250	0xbcc04de3	-0.02347464
251	0x3d9e7ce9	0.077386685
252	0xbd78ace6	-0.060711764
253	0xbca16316	-0.019700568
254	0x3d2a8a12	0.04163558
255	0x3bbc48a4	0.005745964
