classification/best_model_epoch_dronecrowd.pth (torch, 17143 bytes, 5 tensors)

conv1.weight f4 [8, 3, 3, 3]
00000000: 0582 76be 2160 5fbe e175 4e3e 542f d93d
00000010: 9ed8 cebd 7503 9a3d 9e96 613e c98d 9a3e
00000020: 3e3a b43e 339c 06bf 0f20 c5bd 4b37 35bd
00000030: 24a3 8dbc 90a3 6bbe 146b ce3d 822b 683e
00000040: 9139 313e e287 d33d 7fb2 2fbe 3ad0 3abd
00000050: 30e9 debd 1fb6 15be c0b9 e4bd 1f98 24be
00000060: 6816 273e 9c52 853e 4a15 c03d f0ce d23d
00000070: 9a38 2a3d decf a7be c23c b53e e422 743d
00000080: 8e5d 8bbe 5a3d ce3e 30bf b7bd b06b 86be
00000090: d3fd 1f3e 87a3 d93d bf03 9cbd de43 9a3e
000000a0: f585 5bbd 283a b0be 6304 463e a15d 5b3d
000000b0: 38ea cbbe a515 b33e 4f0d e6bd 1e34 39be
000000c0: ef92 d43e b76b f5bd 678c 98be 48f3 8a3e
000000d0: af97 e8bd a20e 30be 162b 7a3e 9382 b9bb
000000e0: 4eaf 66bd 74ef 933e 1f90 083e cfcf 0fbd
000000f0: 6bc9 9a3b 8bb2 64be 5e5c 1f3e 6c54 dd3e
00000100: 7a2c 183d ef38 6dbe ebbc 9c3e 944c 16be
00000110: f4e0 f33d 0f87 143e 234a 20be eca8 503e
00000120: 5aa0 743e 5000 f13d 5a06 a8be dbb2 9bbd
00000130: c025 0dbd 28e8 20bd f5ba dcbd 4f5e 90be
00000140: 8535 aebe 9922 5abb af66 273d a70c 543e
00000150: 3fea 96bd 4657 b73d cf00 0b3e 33e5 00bf
00000160: 2004 7ebd 67be 7e3e 0283 02be 3e7b 2e3c
00000170: 78ca c03e 8f6f 9bbe c4ff 1a3e eccc ac3e
00000180: eb4c b2be 4cf9 96be 089d 12bd 6e8d 14bb
00000190: 147d 823e 05ab 9f3e d94e 0f3d 326e 3ebc
000001a0: 9bd7 b23d 44a7 f8be 2e59 c1bd a3aa d7bc
000001b0: 62eb dabc 5643 cdbd 6418 47be 66ca ea3d
000001c0: 318b 19be 557e f6bc 9e59 4bbe b343 2cbd
000001d0: 1c77 58be c54c c83e c12c f23d f9a7 193e
000001e0: 84a6 783e be30 783e aae1 1f3e b3c2 cd3d
000001f0: c251 763e 7cb1 9a3e 24b0 243d 1a4d b4bd
00000200: bc99 23bd 96dd f9bd 1c95 09be 6716 6ebe
00000210: 8c3b 92be 59c3 f3bd 9da5 e1bd a974 763d
00000220: 5d0a 4d3d 590e 273e 33db 8f3c 498f fbbd
00000230: e071 72be 5abe 02be 3c1b 6dbe d313 53be
00000240: 06fe b13d 8558 4f3e 8ef3 2e3e 3e1f cd3c
00000250: 0abe d7bc 8a91 b7bd 9512 c3bd 012b aebe
00000260: 9b14 98be c7d1 633e 16b6 af3e d8bb c53e
00000270: f097 233e 49a2 f43d 56f9 d43d d2a7 4d3c
00000280: 9857 55be b67d 3cbc fb65 c13d cb6d c4bc
00000290: fb8e 12be de72 463c 4404 5e3b 05f2 f53d
000002a0: 16e6 7a3e a74b 503e 6e48 433e 0096 8abe
000002b0: 0ecf a1be 0c38 9ebe 5420 3cbe c2aa ba3d
000002c0: f204 443c 463c 83bd 02b6 093e abd7 25be
000002d0: 6dd1 ac3b 903e 74bc 8b74 a8bd 9123 653d
000002e0: 523c f9bc 6e0d 253d 8e4d 3dbe 49fe 75bd
000002f0: fcf9 443e 5324 97bd fae6 8bbe 5d20 d9bc
00000300: b8b6 f9bd 4f4a 4b3d 94c7 2abe 572b 14be
00000310: 005e 90be 6ca9 1ebe 92d6 e7bd 407a ccbe
00000320: 9c54 50be 365f b03d b704 0fbe d933 313e
00000330: dbda 67be 3fb2 adbe a6f2 5bbe 4833 543e
00000340: 8385 07be cad5 113e 4349 1cb9 593c e83d
00000350: b494 bc3e 4fca 9ebd 83d8 1abe 292c 753e
-0.24073036 -0.21814014 0.20162155 0.1060473 -0.1009991 0.075201906 0.22030112 0.30186298
0.35200685 -0.5258209 -0.09625255 -0.044242185 -0.017289706 -0.23011613 0.10079017 0.22672847
0.17307116 0.10328652 -0.17157935 -0.045608737 -0.10884321 -0.14620255 -0.111682415 -0.16073655
0.16317141 0.26039588 0.093790606 0.102933764 0.041557886 -0.32775778 0.35397917 0.059603587
-0.27219814 0.40281183 -0.08972013 -0.26254034 0.1562417 0.106268935 -0.07617902 0.30129904
-0.05359455 -0.3441937 0.19337611 0.05355609 -0.39827132 0.3497745 -0.11233007 -0.18086287
0.4151835 -0.119834356 -0.29794618 0.27138734 -0.11357056 -0.17193082 0.24430498 -0.0056613176
-0.056319527 0.28893626 0.13336228 -0.03511029 0.004723718 -0.22333734 0.15562579 0.4322847
0.03715179 -0.2316625 0.30612883 -0.1467765 0.11908141 0.14504646 -0.15653281 0.20376939
0.23889294 0.11767638 -0.32817346 -0.07602473 -0.03445983 -0.0392839 -0.10777847 -0.28196952
-0.34025207 -0.0033284782 0.04086941 0.20707951 -0.07368898 0.08952193 0.13574527 -0.5034973
-0.062015653 0.2487732 -0.12745288 0.0106495 0.3765447 -0.3035855 0.1513663 0.33750093
-0.3482431 -0.29487073 -0.035794288 -0.0022667306 0.25486052 0.31185165 0.034987304 -0.011622952
0.0873253 -0.48565114 -0.09440838 -0.026326483 -0.026723567 -0.10022609 -0.19442898 0.11464386
-0.14994504 -0.030089537 -0.19858405 -0.04205675 -0.21139187 0.3912107 0.118249424 0.15005483
0.2428227 0.24237344 0.15613428 0.100469016 0.24054626 0.30213535 0.040207043 -0.088037685
-0.039941534 -0.12200467 -0.13435787 -0.23250733 -0.28561056 -0.11902494 -0.11017916 0.06016985
0.05005871 0.16314067 0.017560577 -0.12283189 -0.23676252 -0.12767926 -0.2315492 -0.20613031
0.08691029 0.20248611 0.17085096 0.025039311 -0.026335735 -0.08963306 -0.095250286 -0.34017184
-0.2970322 0.22247992 0.34318608 0.38619876 0.15975928 0.11945016 0.103991196 0.0125522185
-0.20834196 -0.011504581 0.09443279 -0.023978135 -0.14312355 0.012112347 0.0033877054 0.12009052
0.24501833 0.20341359 0.19070598 -0.27067566 -0.31603283 -0.30902135 -0.18371707 0.09114601
0.01196407 -0.064079806 0.13448337 -0.16195552 0.005273989 -0.014907494 -0.08225354 0.055942122
-0.03042427 0.04029601 -0.18486616 -0.06005696 0.19235986 -0.07379975 -0.2732466 -0.02650469
-0.12193054 0.049631413 -0.16677696 -0.14469658 -0.28196716 -0.15494317 -0.11320223 -0.3993702
-0.20344776 0.0861191 -0.13966642 0.17304935 -0.2264208 -0.33925053 -0.21479282 0.20722687
-0.13234524 0.1424171 -0.00014904611 0.113396354 0.368322 -0.07753431 -0.15121655 0.23942627

conv1.bias f4 [8]
00000000: 0b76 7bbd 06a4 85bb 100f 0ebd d69d 293c
00000010: 2f73 803c f6e1 033d a510 3a3e ae16 ae3e
-0.06139187 -0.004078391 -0.034682333 0.010352572 0.015679924 0.032197915 0.18170412 0.34001678

conv2.weight f4 [16, 8, 3, 3]
00000000: 2532 113e 3edb 473e 1c9b 623b a437 e83d
00000010: 7bbe c23d 4e42 65bd ad17 d43d 018f 12bc
00000020: 2ce7 623d e6ad cebe 8557 063e 9683 14be
00000030: fa54 65be 4e4d c73d 2f98 5bbe 31e2 9ebd
00000040: 6985 dc3d 4ff2 f2bc 669b 653e a877 333e
00000050: c0fd 573e f40a ec3d b951 643d f4e1 123e
00000060: f455 803d 2802 423e b666 ca3d 1474 eb3d
00000070: e42d 303e 4010 9d3d de43 13be ef50 f6bd
00000080: 7abe 3b3d e8bb 50be 25b0 b5bd 388d 703e
00000090: 7be8 c33e 8a4e 753e e050 c93e ba3f 9b3e
000000a0: c061 2a3e dce2 8b3e d17b 5c3e e5e6 393c
000000b0: 9f29 49bc c3c1 3cbe f77b 89bc 4662 30be
000000c0: 38b9 13be a0d2 4dbe 8f78 97be 5fbb 4fbe
000000d0: 7980 83be de87 59be be43 0f3e c3cf b03d
000000e0: 6a46 313e 4fbd eb3b 6c8b c1bb 3d21 3c3d
000000f0: bce8 60be 7267 14be 7b48 c4bb 53b6 d2bd
00000100: 8888 1ebe bd71 f2bd 1138 edbd d3c4 81bd
00000110: 6be6 b7bd d8ff 9a3e 22cc 683e 612f 3b3e
00000120: 10af dd3e 95e2 0b3e d708 9f3d 7660 753e
00000130: 8cc0 983c 4a2a 3bbe f89a 60be dfcf 20bd
00000140: 977a 53be 4e03 f6bd eadd 903d fe5a bebe
00000150: e02a e2bc 1625 3abe e847 90be a39c 08be
00000160: bfe0 a9be 12ef b6bd 6711 173e eee3 dfbc
00000170: 5e6c a2bd 208e 543e 12f7 cbbd 77af ef3d
00000180: fa94 063d 7863 39be 8846 ca3c 0fb1 a2be
00000190: 54ad 82be 2056 d23c 955b 57be c813 1bbe
000001a0: 30a4 103e 9179 a5be d94c a13d 4a02 9e3e
000001b0: 27ec ccbe cf39 28be ba47 b9be 533b a43e
000001c0: 08de 143e ac74 f8bd cccd b43d ce81 19be
000001d0: bfdb 6f3d cc43 9fbd a315 113e 7b6b 913e
000001e0: 7fc3 4b3e 16e6 4c3e 348a 953e 2d62 303e
000001f0: 0836 213e a83f 543e cd47 183e 42e5 25be
00000200: 78a3 453e 65a1 00be 85b3 81be a098 c13d
00000210: cf46 6abd 38e7 af3d 8517 ef3d 4ea6 b6be
00000220: 7b5e 22bf e791 00be 558c fbbe 3fae 30bf
00000230: 9073 81be 7c4b cebe e4f2 37bf fb07 ecbe
00000240: cd3d 2cbd 200e 9abd 1881 3fbe 58a8 ab3d
00000250: 2a66 f2bb a0e2 273b 74dd 883d b37a 693d
00000260: c733 0abe 213d b9bf 513a c6bf adba 15c0
00000270: f74f 04c0 3004 9dbf 5f45 95bf 1c25 12c0
00000280: 1bcf 14c0 af0a 4bc0 c45c 6b3e 5569 a43d
00000290: 9d52 9b3d 22f5 dcbd 89cb ffbd a95d 34be
000002a0: ffa9 243e 9911 973d 7d05 9dbc 58db c4be
000002b0: b464 e93d 675b 0cbe 5983 ebbf abc4 07bf
000002c0: a97a 0cc0 a8a0 79c0 fdc7 0abf f38a 25c0
000002d0: 411b d73e 3399 9d3e 73b2 783e 9efd f5bd
000002e0: 1569 1dbe 1075 b2bd c905 6abe 71c5 25be
000002f0: d501 06be 3977 083f 699f 843e 5a60 ad3d
00000300: 3610 25bb 62dd 3abe 2372 85be fc1a 25be
00000310: dba4 edbd c88a 7fbe 5d8b 8fbe 99f0 493d
00000320: c604 6a3d 5c16 02be cdd8 103e a4b7 a23d
00000330: 8905 e43c f383 6b3e d348 783e 70cf bfbe
00000340: 5637 b13c edd8 bc3e ac48 d6bc 9ca2 7f3e
00000350: 4c1e 0f3f 8dab dcbe 32fe 98bd 389b 2abd
00000360: 6b5d 783d fc49 e33b 589f 0bbe f320 79be
00000370: 91d2 84be 76e1 bcbe 3710 0d3c 91ff cebc
00000380: e293 23bd a0ad 0bc0 2eee 5fbf 4c62 d4be
00000390: e785 61bf 17c4 8ebf 0445 1cbe 3850 143f
000003a0: c47e 25bf f8c0 1dbe 2509 863e 7554 803e
000003b0: bd4d fd3d 12b8 133e a61b 563d 66e1 1dbe
000003c0: d7c6 133d 31c9 88bd 94d7 96be 4d76 07bf
000003d0: 1ef5 d6bf 3417 8ebf 1817 19be b52a 81bf
000003e0: 249f d2bf 3269 f4be 2a59 0ebf 63eb 3bbf
000003f0: 3887 843e a5b5 243e ead6 893e 6264 1dbe
0.14179285 0.19517228 0.0034577316 0.113387376 0.095089875 -0.055971436 0.10356078 -0.008945228
0.055396244 -0.4036705 0.13119324 -0.14503321 -0.22395697 0.097315416 -0.21444772 -0.07757986
0.107676335 -0.029656557 0.22422561 0.17526114 0.21092892 0.11525527 0.055742 0.14344007
0.06266394 0.18946135 0.09882872 0.114967495 0.17205006 0.07669115 -0.14381358 -0.120271556
0.04583595 -0.2038418 -0.088714875 0.2349137 0.38263306 0.23955742 0.39319515 0.30322057
0.16638851 0.27321517 0.21531607 0.011346553 -0.01227799 -0.18433289 -0.016782744 -0.17224988
-0.14426124 -0.20099878 -0.29584166 -0.2028632 -0.25683954 -0.21243235 0.13990685 0.086333774
0.17312017 0.007194198 -0.005906513 0.045930136 -0.21963781 -0.14492586 -0.0059900857 -0.10288682
-0.1548177 -0.118381 -0.115829594 -0.06336369 -0.089794956 0.30273318 0.2273412 0.18279792
0.43297625 0.13660653 0.07765358 0.23962578 0.018646501 -0.18277851 -0.21934116 -0.03926074
-0.20652233 -0.12012349 0.07073577 -0.37178797 -0.027608335 -0.1817821 -0.2817986 -0.13341002
-0.3317928 -0.08932318 0.14752732 -0.027330365 -0.07930826 0.20757341 -0.09959234 0.11703389
0.03285692 -0.1810435 0.024691835 -0.3177571 -0.25522864 0.025675833 -0.2103103 -0.15144265
0.14125133 -0.3231931 0.07875986 0.3086112 -0.4002392 -0.16428302 -0.36187536 0.3207651
0.14537823 -0.121316284 0.08828315 -0.14990923 0.058559176 -0.07776603 0.1416841 0.28402314
0.19898795 0.20009646 0.29207003 0.17224951 0.15743268 0.20727408 0.1487114 -0.16200736
0.1930064 -0.12561567 -0.25332275 0.09452939 -0.057196435 0.08589023 0.11674408 -0.35673755
-0.63425416 -0.12555657 -0.49130502 -0.6901588 -0.2528348 -0.40291965 -0.71854997 -0.4609984
-0.042051125 -0.075222254 -0.18701589 0.083817184 -0.007397433 0.0025617257 0.06682864 0.05700178
-0.13496314 -1.447178 -1.5486547 -2.3395188 -2.0673807 -1.2266903 -1.1661795 -2.283515
-2.3251407 -3.172527 0.22984606 0.08027903 0.075841166 -0.10788943 -0.12489993 -0.17613854
0.16080473 0.07376403 -0.019167656 -0.38448596 0.11396161 -0.13706742 -1.8399459 -0.53034467
-2.1949866 -3.9004307 -0.5421141 -2.5866058 0.4201298 0.30780944 0.24286823 -0.12011264
-0.15372117 -0.08713734 -0.2285377 -0.16188599 -0.13086636 0.5330692 0.2590287 0.08465643
-0.0025186664 -0.18248513 -0.26063642 -0.16123575 -0.11603709 -0.24955285 -0.28036013 0.049301717
0.05713346 -0.12703842 0.14145203 0.07945183 0.02783467 0.22999553 0.2424653 -0.3746295
0.021632832 0.3688425 -0.0261577 0.24964374 0.55905604 -0.43099633 -0.07470359 -0.041651934
0.060635965 0.00693631 -0.13635004 -0.24328975 -0.259419 -0.36890763 0.008609823 -0.025268348
-0.039935954 -2.1824722 -0.8747281 -0.41481245 -0.88094944 -1.1153592 -0.15260702 0.57934904
-0.64646554 -0.15405643 0.26178852 0.25064436 0.12368343 0.14425686 0.05227246 -0.15418014
0.0360783 -0.06678999 -0.29461348 -0.5291489 -1.6793554 -1.1100831 -0.14950216 -1.0091158
-1.6454816 -0.47736508 -0.55604804 -0.73406047 0.25884414 0.16084917 0.2692178 -0.15370324

conv2.bias f4 [16]
00000000: e9e0 00be cd3c bb3e f2fb b03d d01f 893e
00000010: 5bde 81bd de3d 363e c6b8 92bd 57d7 fcbd
00000020: 58da d73c 158c adbe 50c2 00be 74ce 203d
00000030: 4f36 143d 9ec7 263e 2d3a babc e740 343d
-0.12585796 0.36569825 0.08641805 0.26782084 -0.06341239 0.17797038 -0.07164149 -0.1234576
0.026349232 -0.33895937 -0.12574124 0.03925939 0.036184605 0.16287085 -0.022732818 0.04400721

fc.weight f4 [1, 2304]
00000000: a4be 8f3e 5bec 6cbe c849 05be e387 12be
00000010: a21f 2bbe 3605 0dbe 1b6a 89be 91b2 fbbd
00000020: 59ce 73be 06eb 74be 63c1 a0bd d526 453e
00000030: 3d06 a53e a80e babb 70ba ed3d 4625 5d3d
00000040: 830f 543d d48d 473d e173 4bbd 59b2 d63d
00000050: ec08 943d e269 2c3c 7953 8b3d 2c7e 08be
00000060: 3bc5 603e ae2f 463c 969b d33d 00da a33d
00000070: 4235 883d 830f a03d e4fd 3bbc 9c4f 583d
00000080: af50 5a3c 807f 703c 8365 e23d 3754 9ebd
00000090: 473e 103e b92a 9e3d 886c 123e ab19 073e
000000a0: 5e72 4f3e e86e 9f3e 1c68 8f3e 38f1 0c3e
000000b0: 886d b43d e7d5 0e3e ca5c 033e ca89 90bc
000000c0: 2cd1 643d 3ae8 823d c5e1 2a3e 6a14 3b3e
000000d0: 9cf4 6b3e b633 c03e a82a a73e 87a3 223e
000000e0: 31ce 133e 9514 453e 4618 5d3e 60f4 b73d
000000f0: 8827 103e 8c3f 663e b993 513e 3c88 8e3d
00000100: 9c6a 233e 30bf 843e b745 923e a825 813e
00000110: 7e2c 4c3e 95ed 7d3e ea49 a43e b40b 243e
00000120: 998b d03d bc37 363e 179e 993e 454c e93d
00000130: 8cff 3f3e 5c6f 633e c1d3 6e3e ef4f 933e
00000140: 9433 333e ec15 9c3e f70b 6f3e 63f8 f73d
00000150: 4409 db3d 3a7a e73d ce1b 2a3e 9950 3c3e
00000160: 0fd4 353e 3be6 8c3e eaef 483e 11c0 a83e
00000170: be63 853e b597 953e d85f 363e d2b8 063e
00000180: 8619 183d 0539 2a3d fc71 693d cd24 e93d
00000190: 2360 993c 369f 6f3d 5067 e43d 1b04 213e
000001a0: 4d23 3b3e 3e3f 2c3e 2121 fb3d 63f9 4c3d
000001b0: 3e9e 393e 5f5d 7c3d bfb3 133e e1a8 073e
000001c0: 3226 3a3e face 343e 05e2 503e f12c 343e
000001d0: 378a 233e 8a5b fd3d c6c9 123e addd c7bb
000001e0: 6005 be3e 3274 aebc 1884 983d 8538 983d
000001f0: 5d29 ba3d 157f f13d ee3f 173e 57e9 113e
00000200: 7919 d43d 578c 7f3d 4ac1 303c 7fbc b0bc
00000210: 1979 45be 88b4 513e ac62 353e 9c8d e73d
00000220: 11ad 173d adc0 fcbc fa21 a43c ed7e e13d
00000230: ea3f 3b3e 37b6 a03e 13f0 bc3e f660 fabe
00000240: b363 233d a37f 34bd f7d3 32bd 387a 5abd
00000250: b3ae 123c bb63 94bc c3b9 7abc 4da7 2cbc
00000260: 0019 c1bc e749 7e3d 983d 79bb 53a1 f1bd
00000270: 39e7 47be 7c1c 27bd 7b2b 12bd c7b1 dcbd
00000280: 607a b5ba 8131 90bc aab6 c03b 7287 a1bc
00000290: 6487 65bd 2d39 1d3d b39d 45bc 0d4b 1bbf
000002a0: bed6 f6bc 822e 07bc caba 1cbd d9a3 41bc
000002b0: f70f 793d a141 9a3d 0f0a ad3d 9c8c 913d
000002c0: 5fb4 ee3a 1160 e13c 5236 f83b da89 efbe
000002d0: e0ae f4bd deb9 873b 61ab 173d 4626 673d
000002e0: 0c7c 283e ab79 5e3e 97a6 813e 41be 393e
000002f0: 816a 553d b1b9 f63d dbd8 983d 0e22 05bf
00000300: c362 73be d50e f5bc 0901 ffbc 6c77 da3c
00000310: 0dc0 843e 4ce8 d53e 530a db3e 2e48 713e
00000320: ee6d 953c 7a45 e53c 8761 813d d2c0 26bf
00000330: d16a 94be d1a3 86bc 66ed ecbc 4a43 a23d
00000340: 0c08 be3e 4e18 0e3f b97b 0f3f cbe4 b03e
00000350: 45ce a73d 95ea 213d 5588 193d 5848 19bf
00000360: aee2 9bbe 8289 6c3b d645 1bbd 2032 0e3d
00000370: 692a b33e a98f fa3e 9b94 ef3e 4187 ac3e
00000380: b583 5a3d e0eb 3e3d 4adf 6d3d b763 97be
00000390: 7cc5 bfbe 6e98 edba c895 b2bb 8669 703b
000003a0: 1402 f83d ee7d 8b3e a627 9d3e da28 0d3e
000003b0: 3688 c43c 350a 353d a33d 673d 43f5 a2be
000003c0: 3c51 adbe cf68 613c 1559 5bbd 3569 85bc
000003d0: f323 f03c 5f5c a23d de2e e63d 8aa6 f53c
000003e0: 2be4 573d 0ac7 903d 8653 893d 4553 ebbe
000003f0: 0da4 1ebe 3420 253d 3004 43bd bef4 17bd
0.28075135 -0.23137037 -0.13016427 -0.14309649 -0.16711286 -0.13771519 -0.26838765 -0.12289918
-0.23809184 -0.2391778 -0.078493856 0.19253094 0.32231322 -0.0056780167 0.11607826 0.053990625
0.051772606 0.048719242 -0.049671058 0.10483236 0.07228264 0.010523291 0.068030305 -0.13329381
0.21950237 0.012096329 0.1033241 0.080005646 0.06650783 0.078154586 -0.011474106 0.052810296
0.0133249005 0.014678836 0.11054518 -0.077309065 0.14086257 0.077229924 0.14299214 0.13193385
0.20258471 0.31139302 0.28009117 0.13763893 0.08809954 0.13948785 0.12828365 -0.017643828
0.055863544 0.0639195 0.16687687 0.18269506 0.2304253 0.37539452 0.32649732 0.15882693
0.14434125 0.19246133 0.21591291 0.08982158 0.1407758 0.22485179 0.20466508 0.069595784
0.15958637 0.25927114 0.28568813 0.25224042 0.19938847 0.24797662 0.32087642 0.1602009
0.10182876 0.17794698 0.30003425 0.113915004 0.18749827 0.22210449 0.23322965 0.28771922
0.17500144 0.30485475 0.23344408 0.12107923 0.10695127 0.1130261 0.16612169 0.1839012
0.17756675 0.27519402 0.1962277 0.32959035 0.2605266 0.29217306 0.17809999 0.13156441
0.037133716 0.041558284 0.05699347 0.11383972 0.0187226 0.058501445 0.11152518 0.15724222
0.18275185 0.16821 0.12262178 0.05004252 0.18126771 0.061612483 0.14424036 0.13248016
0.18178633 0.1765708 0.2039872 0.17595269 0.15970694 0.12370975 0.14334783 -0.006099424
0.37113476 -0.02129564 0.0744707 0.07432655 0.09089921 0.11791817 0.14770481 0.14249168
0.10356421 0.062389698 0.010788271 -0.021574257 -0.19284476 0.20479023 0.17713422 0.11306307
0.037030283 -0.030853594 0.020035733 0.11010537 0.182861 0.3138902 0.36901912 -0.489021
0.039890002 -0.044067036 -0.043659177 -0.053339213 0.008952784 -0.018113961 -0.015303078 -0.0105379345
-0.023571491 0.062082198 -0.0038031098 -0.11798348 -0.19521798 -0.04079865 -0.035685997 -0.10776096
-0.0013845675 -0.01760173 0.0058811503 -0.019717906 -0.05603732 0.038384605 -0.012061524 -0.60661393
-0.030131694 -0.008250834 -0.038264073 -0.0118188495 0.06080624 0.07532049 0.08449184 0.07106897
0.0018211714 0.027511628 0.007574835 -0.4678486 -0.11947417 0.00414203 0.037028674 0.056432985
0.1645357 0.217261 0.2532241 0.18138982 0.052103523 0.120471366 0.07463237 -0.5200509
-0.23768143 -0.029914299 -0.031128423 0.026668273 0.25927773 0.4177879 0.42781314 0.2356269
0.018240895 0.02798723 0.0631743 -0.6513797 -0.28987744 -0.016435536 -0.028921794 0.079229906
0.37115514 0.55505836 0.5604816 0.34549555 0.0819364 0.039530355 0.037483532 -0.5987601
-0.3044638 0.0036092703 -0.037908398 0.03471577 0.34993294 0.4893773 0.46793064 0.3369694
0.053348262 0.046611667 0.058074273 -0.29568264 -0.37455356 -0.0018127093 -0.005449984 0.003668399
0.12109771 0.27244514 0.30694312 0.13785115 0.023990732 0.044199187 0.056455266 -0.31827745
-0.3385104 0.0137578985 -0.053551752 -0.016285518 0.029314017 0.07927775 0.11239408 0.029986639
0.052707832 0.07069214 0.06705384 -0.45961967 -0.15492268 0.040313914 -0.047611415 -0.03709864
